…
240,"elapsed":216,"user":{"displayName":"Reme Ajayi","photoUrl":"https://lh3.googleusercontent.com/a-/AOh14GhN8zQmlaw0qqSrV6gaUudsq1_q7H5feHV1CmYuoQ=s64","userId":"03469130805703249554"}},"outputId":"40d8e49b-8029-4d7a-841e-d27f75dab3e1"},"source":["model.summary()"],"execution_count":null,"outputs":[{"output_type":"stream","text":["Model: \"sequential\"\n","_________________________________________________________________\n","Layer (type)                 Output Shape              Param #   \n","=================================================================\n","conv2d (Conv2D)              (None, 28, 28, 32)        320       \n","_________________________________________________________________\n","max_pooling2d (MaxPooling2D) (None, 14, 14, 32)        0         \n","_________________________________________________________________\n","batch_normalization (BatchNo (None, 14, 14, 32)        128       \n","_________________________________________________________________\n","conv2d_1 (Conv2D)            (None, 14, 14, 64)        18496     \n","_________________________________________________________________\n","dropout (Dropout)            (None, 14, 14, 64)        0         \n","_________________________________________________________________\n","max_pooling2d_1 (MaxPooling2 (None, 7, 7, 64)          0         \n","_________________________________________________________________\n","conv2d_2 (Conv2D)            (None, 7, 7, 64)          36928     \n","_________________________________________________________________\n","batch_normalization_1 (Batch (None, 7, 7, 64)          256       \n","_________________________________________________________________\n","dropout_1 (Dropout)          (None, 7, 7, 64)          0         \n","_________________________________________________________________\n","flatten (Flatten)            (None, 3136)              0         \n","_________________________________________________________________\n","dense (Dense)                (None, 64)                200768    \n","_________________________________________________________________\n","dense_1 (Dense)              (None, 5)                 325       \n","=================================================================\n","Total params: 257,221\n","Trainable params: 257,029\n","Non-trainable params: 192\n","_________________________________________________________________\n"],"name":"stdout"}]},{"cell_type":"code","metadata":{"id":"61Sywan3lpYv"},"source":["X_train = X_train.reshape((-1, 28, 28, 1))\n","X_val = X_val.reshape((-1, 28, 2
…
psed":641,"user":{"displayName":"Reme Ajayi","photoUrl":"https://lh3.googleusercontent.com/a-/AOh14GhN8zQmlaw0qqSrV6gaUudsq1_q7H5feHV1CmYuoQ=s64","userId":"03469130805703249554"}},"outputId":"01c726f6-5fc1-473f-a317-1197106ef8d5"},"source":["model_brief.summary()"],"execution_count":null,"outputs":[{"output_type":"stream","text":["Model: \"sequential_1\"\n","_________________________________________________________________\n","Layer (type)                 Output Shape              Param #   \n","=================================================================\n","conv2d_1 (Conv2D)            (None, 28, 28, 32)        320       \n","_________________________________________________________________\n","batch_normalization_1 (Batch (None, 28, 28, 32)        128       \n","_________________________________________________________________\n","max_pooling2d_1 (MaxPooling2 (None, 14, 14, 32)        0         \n","_________________________________________________________________\n","flatten_1 (Flatten)          (None, 6272)              0         \n","_________________________________________________________________\n","dense_2 (Dense)              (None, 128)               802944    \n","_________________________________________________________________\n","dense_3 (Dense)              (None, 5)                 645       \n","=================================================================\n","Total params: 804,037\n","Trainable params: 803,973\n","Non-trainable params: 64\n","_________________________________________________________________\n"],"name":"stdout"}]},{"cell_type":"code","metadata":{"id":"1npTrXn8lpYx"},"source":["model_brief.compile(optimizer='adam',\n","              loss=tf.keras.losses.Spa
…
